python/cnn/mobilenetallrelu.pkl (torch_old, 23324 bytes, 10 tensors)

weight f4 [10, 1, 1, 3]
000000 0d 5c 56 bf 0c ba 28 bf 99 65 43 bf 34 2b 31 3f
       -0.8373421 -0.65908885 -0.763269 0.6920655
000010 58 8c 19 3f cb a6 4a 3f 87 22 4c 3e 0d 9a 51 be
       0.5997977 0.79160756 0.19935046 -0.20468922
000020 c7 e6 e1 3e 3c 5a 5f 3e 86 a9 79 3e 04 e7 09 3f
       0.44121382 0.21811765 0.24381074 0.53868127
000030 d2 eb 5b be ba ea 1e 3f 4e e1 72 3f 08 ac 4e 3f
       -0.21476677 0.62076914 0.9487504 0.8073125
000040 6e 55 80 3f d0 1a 93 3f 40 27 21 3f 3e a4 f3 3d
       1.0026071 1.1492558 0.62950516 0.11896561
000050 bc 40 3d 3f da 13 26 bf 25 ce 21 bf 14 e9 ce be
       0.739269 -0.6487404 -0.63205177 -0.404122
000060 f6 f2 4a bf 52 b3 50 bf 74 91 23 bf 40 61 94 bf
       -0.7927698 -0.8152362 -0.6389382 -1.1592178
000070 4e d9 b3 be 77 b0 dc 3d
       -0.35126728 0.107758455

bias f4 [10]
000000 d0 75 e1 3e 3f d5 3f 3f 73 38 93 3e 99 37 61 3e
       0.44035196 0.7493476 0.28754005 0.21993865
000010 74 74 cd 3e 0a 63 11 3e 8d c4 be bb ae 54 37 3e
       0.4012791 0.14197937 -0.0058217705 0.17903396
000020 67 a6 a5 be 56 ab c1 bd
       -0.32353517 -0.09456508

weight f4 [6, 10, 1, 1]
000000 90 ac 11 bd 78 6f 06 be 81 35 10 bf 66 ef b1 3e
       -0.03556496 -0.1312846 -0.5633164 0.3475296
000010 56 49 eb 3e 58 20 1c bf 32 5f 99 3e 5c 28 27 3e
       0.45954388 -0.6098685 0.2995544 0.1632399
000020 3f 6e 91 be 38 7a 8b bd f9 d4 42 be cd a7 8e bf
       -0.28404424 -0.06810421 -0.19026555 -1.1144959
000030 5b 6c 24 3f 23 8d 21 3f 99 5f 2f 3f 68 ae 67 bf
       0.6422784 0.6310598 0.68505245 -0.905005
000040 55 ac 43 bf 46 1c 41 3d c8 43 92 bf 9d cd 93 bf
       -0.7643483 0.047146104 -1.1426935 -1.1547123
000050 1b c8 18 3f e3 af c7 3e 6f 11 7b 3c 0f 22 c5 3d
       0.59680337 0.39001378 0.015323981 0.09625637
000060 d2 0a cb 3e ef 5d b6 3e 86 51 e8 be ef a7 2d bf
       0.39656693 0.3561854 -0.45374697 -0.6783437
000070 e4 64 fb bd 97 1a 55 bf 72 2a a3 be 19 b3 46 3e
       -0.12275103 -0.832437 -0.3186832 0.19404258
000080 c1 2c c3 be 76 7f 14 bf 10 cd f6 3d 4b f6 af be
       -0.38120082 -0.5800699 0.12050831 -0.34367594
000090 cb cd b1 3e 78 2d 98 3e 38 23 09 3f 4d c1 81 bb
       0.3472732 0.2972219 0.53569365 -0.003959811
0000a0 6d 56 13 3f 53 a6 16 3f d0 f6 dd be 10 39 e6 3d
       0.5755375 0.5884754 -0.43352365 0.112413526
0000b0 06 fd 6a be 00 e7 fc bb 18 67 8a 3d 16 cd 42 be
       -0.22948083 -0.007717967 0.06757945 -0.19023547
0000c0 35 ef 05 bf ea fa fe 3e c3 7e c3 bf e6 48 cf 3f
       -0.52318126 0.49800807 -1.527306 1.6194122
0000d0 58 d9 cc bd 16 1d c2 bc 51 b4 38 bf 22 f8 a0 bf
       -0.100023925 -0.02369551 -0.7215014 -1.2575724
0000e0 6f 7e 52 3f c5 6b 3d 3f 9f 03 26 bd ce 41 46 be
       0.8222417 0.7399257 -0.040530797 -0.1936104

bias f4 [6]
000000 00 00 00 00 82 6a 87 3f 0e 94 4a be c1 f4 0f 3e
       0.0 1.0579379 -0.19783041 0.1405821
000010 00 00 00 00 19 6f 7f 3d
       0.0 0.06236181

weight f4 [6, 1, 1, 2]
000000 b0 6d 73 bd 6f 6b 23 bf cb aa bd 3f 9f 5b 93 3f
       -0.059430778 -0.63835806 1.4817747 1.1512336
000010 e3 fa fb 3d 57 39 91 3f f5 df 59 be 54 12 cb 3e
       0.12303712 1.1345624 -0.21276839 0.3966242
000020 7e 4c 92 be 46 ea b9 be e6 76 f3 3f 56 ea 9c 3f
       -0.28573984 -0.3631155 1.902066 1.2259014

bias f4 [6]
000000 00 00 00 00 98 8e bf bc 30 cd dd 3d e6 8b 91 3e
       0.0 -0.023383424 0.10830152 0.28427047
000010 00 00 00 00 95 fe fe 3c
       0.0 0.031127254

weight f4 [10, 6, 1, 1]
000000 d8 30 d1 be 60 60 fb 3e ef 19 57 3e a0 69 fb be
       -0.40857577 0.49096966 0.21005987 -0.49104023
000010 52 5a 08 bf 62 96 03 3e e0 ad dc bd a8 83 2a 3f
       -0.5326282 0.12850335 -0.107753515 0.6660714
000020 c3 bd 57 3e 35 d0 f5 be d8 fc c2 3e ee 6e 46 3f
       0.21068482 -0.48010412 0.3808353 0.77513015
000030 74 e3 06 be e7 9b 2d 3f be f0 94 be 11 3f 85 bd
       -0.13172704 0.67816013 -0.29089922 -0.065061696
000040 92 b9 13 bf d4 46 f3 be 4a d9 ae be 99 be b5 3d
       -0.5770503 -0.47514975 -0.34150153 0.08874244
000050 18 bb dd 3e ae 56 ba bd de bc 6b be 4c 4f 56 bf
       0.43306804 -0.09098564 -0.23021266 -0.8371475
000060 18 29 de 3d b3 7b d4 bd 2a af 52 3f d3 cd 8f bc
       0.10847682 -0.10375156 0.8229853 -0.0175542
000070 77 e1 0a bf c5 30 bf be 70 c1 4f 3d 4f 9f 8c 3f
       -0.5425028 -0.37341896 0.050721586 1.0986117
000080 e7 a5 e2 3e f0 74 cf be a4 cf f3 bd de ec 9a bf
       0.44267198 -0.40518904 -0.11904839 -1.2103536
000090 90 e1 97 3d 2c 9a c0 be 77 b3 02 bf f3 1d da bd
       0.074160695 -0.37617624 -0.5105509 -0.106502436
0000a0 8c 19 7f 3e 5f 8d 0d 3e 6f 31 b2 be 2b 66 11 bf
       0.24912089 0.1382346 -0.3480334 -0.5679652
0000b0 af da c1 3d 8e 29 c8 3e b2 64 f9 3e 64 bb 9c be
       0.09465539 0.39094204 0.48709637 -0.30611718
0000c0 42 0d ba be 0c 2a ab bf d6 a6 06 3e ee 9f c6 be
       -0.3633824 -1.3372207 0.1314958 -0.38793892
0000d0 6b d0 98 be e9 25 ce 3f c0 dd a8 3d 72 c0 05 be
       -0.2984651 1.6105319 0.082454205 -0.13061693
0000e0 9c 49 55 3f d7 19 f8 be c8 2c 91 3e 11 d0 07 3f
       0.83315444 -0.48457214 0.28354478 0.5305186

bias f4 [10]
000000 8b 0d 7a bd 3f 60 b6 be 9a 43 0d be 7c c9 4d 3d
       -0.06104807 -0.35620305 -0.13795319 0.05024098
000010 08 75 45 3e f2 38 fd bd 96 8e 81 bd 65 82 cf 3d
       0.19282925 -0.12364377 -0.06326024 0.10132293
000020 4b 58 b8 bd 5a eb 2c 3e
       -0.090012155 0.16886654

weight f4 [7, 290]
000000 0f 6a ba be 42 29 8a 3e d7 a4 a4 3e 04 f2 bb 3e
       -0.3640904 0.26984602 0.32157013 0.3670808
000010 ae bc 85 3e 8c e9 d6 3d 9b 17 c8 3b 67 1e a7 bc
       0.26120514 0.10493764 0.0061063296 -0.02040024
000020 d0 38 7e bd 5d f4 a5 bd 40 cf bf bd dd 5b ae bd
       -0.0620659 -0.08103249 -0.09365702 -0.08513615
000030 95 42 95 bd 7f c3 6f bd 20 fb 76 bd 26 99 33 bd
       -0.0728809 -0.05853605 -0.060298085 -0.043847226
000040 3b bd d0 bc 4d 8c 04 bd 81 a4 81 bc 08 2c c6 3b
       -0.025480857 -0.032360364 -0.015825512 0.0060477294
000050 c5 e2 91 3c fc 60 d7 3c df ed 8c 3c 72 75 f8 3c
       0.017808327 0.026291363 0.01720327 0.03032944
000060 ec 99 c4 3c fd 37 ec 3c 7d ed 5a 3d 85 f7 7c 3d
       0.023999177 0.028835291 0.053449143 0.06175949
000070 7f 61 98 3d ff d1 e3 be 1e 78 09 3f 2b d1 ef 3e
       0.07440471 -0.44496152 0.5369891 0.4683927
000080 72 5a 03 3f 47 47 ac 3e 39 49 b4 3d 21 a5 d8 bc
       0.51309884 0.3364813 0.088030286 -0.026445927
000090 09 4b 8a bd 2a 19 0d be 97 f2 1a be 05 db 2c be
       -0.06752593 -0.1377913 -0.15131603 -0.16880424
0000a0 1a fc 2d be 11 7a 27 be 6f 5a f5 bd ef 6f 0f be
       -0.169907 -0.16355158 -0.119801395 -0.14007543
0000b0 de 48 f3 bd 6b 53 cb bd 5a 1a af bd 23 c7 80 bd
       -0.11879133 -0.0992802 -0.08549948 -0.06287982
0000c0 59 67 b9 3b 16 b6 2e 3d 97 f2 7c 3d 5a be 14 3d
       0.005658072 0.04265412 0.06175479 0.036314346
0000d0 4d 55 8e 3d 81 69 5c 3d e3 44 84 3d c0 6e ca 3d
       0.069498636 0.053811554 0.064584516 0.09884405
0000e0 a8 fe ba 3d bf 49 d5 3d cb e8 ec be ba 20 04 3d
       0.09130603 0.104144566 -0.46271357 0.032257773
0000f0 a7 cf 38 3e dd f6 86 3e e9 d7 30 3e 3c bc 52 3d
       0.18047963 0.26360217 0.17269863 0.051449046
000100 d6 34 a4 bc be 7c 43 bd f6 92 a1 bd ef 8b bc bd
       -0.020044725 -0.047726385 -0.07889359 -0.09206378
000110 07 cb ae bd b6 3d 92 bd 71 ce 51 bd 52 6e 17 bd
       -0.08534818 -0.07140677 -0.05122227 -0.036970444
000120 8a 0a 93 bb 10 07 9f 3c 07 0b 18 3d dc 6b d7 3c
       -0.0044873403 0.019412547 0.03711989 0.026296549
000130 ab b9 08 3d cb b0 1a 3d 3f 26 08 3d 97 78 41 3d
       0.03338019 0.03776626 0.0332396 0.047234144
000140 1d 65 32 3d ef bc 5e 3d b7 b1 6d 3d ae 82 67 3d
       0.04355346 0.0543794 0.05803081 0.05652111
000150 a3 e5 b4 3d e4 34 e2 3d 58 80 03 3e 1b fe 2a bd
       0.08832862 0.11045244 0.12841928 -0.04174624
000160 d8 f3 00 be dc d5 74 bd 88 45 ce bb 1a 03 91 bb
       -0.12593019 -0.059774265 -0.00629491 -0.0044254186
000170 4e c5 e7 bb 9f 3b 7b bc a6 76 a7 bc 9d 44 ad bc
       -0.007073081 -0.015334039 -0.020442318 -0.021150881
000180 5f 45 ca bc eb 53 72 bc 58 20 d6 bb eb aa eb 3a
       -0.024691282 -0.014790515 -0.0065346174 0.0017980015
000190 c9 e0 ee ba 97 3c ce 3c 04 26 05 3d 75 dd 13 3d
       -0.001822495 0.025175376 0.032506958 0.03609987
0001a0 de b0 dd 3c 70 d0 95 3c 69 87 d9 3a a3 02 55 bc
       0.027061876 0.018287867 0.0016596142 -0.013001117
0001b0 58 a6 7e bc 0c b0 8e bc 1a d5 89 bc c6 af 7c bc
       -0.015542589 -0.01741793 -0.016825248 -0.015422767
0001c0 aa 9b 6b bc 1b 29 fd bb 9d c5 aa 3b a9 ba 82 3c
       -0.014380375 -0.0077258474 0.0052115456 0.015958147
0001d0 bb 69 ad b9 47 50 99 bd 6c 37 11 bd e5 81 73 bc
       -0.00033075907 -0.07486015 -0.035453245 -0.014862512
0001e0 cb 08 ff 3b 5c 1f e0 3c b7 8d 20 3d 4f 8d 17 3d
       0.0077830306 0.027358703 0.03919765 0.036999997
0001f0 88 f6 17 3d df 12 1a 3d e3 52 14 3d 7c 1d fb 3c
       0.037100345 0.037615653 0.03621186 0.030653708
000200 cc 25 dd 3c 01 65 3f 3c 36 a5 71 3c 62 f1 1e 3c
       0.026995562 0.011681796 0.014748862 0.009701105
000210 fb 2f 68 3b b4 ad e2 bb e1 cb 37 bc cc ad bc bc
       0.003542899 -0.0069176797 -0.011218042 -0.023032092
000220 01 9f 04 bd 20 40 0f bd 9a 6e 19 bd 84 7e 28 bd
       -0.0323782 -0.034973264 -0.037458993 -0.04113628
000230 26 5a 28 bd f0 92 3d bd 52 20 38 bd d1 90 32 bd
       -0.041101597 -0.04628271 -0.044952698 -0.04359514
000240 e1 d0 27 bd c0 bc 47 bf 52 ee 83 be 8b b4 ce 3d
       -0.040970687 -0.78022385 -0.2576776 0.100930296
000250 b4 cf 8c 3e 14 ea 14 3e b3 16 c0 3a c3 9a 9f bd
       0.27502215 0.14542419 0.0014655202 -0.0779319
000260 58 a4 a9 bd f8 ba ee bd c5 e5 11 be d9 da 07 be
       -0.08283299 -0.11656755 -0.14247806 -0.13267078
000270 f9 e8 ef bd 5b fc 9c bd f4 11 83 bd 86 3b 5f 3c
       -0.11714358 -0.076653205 -0.06399909 0.013625031
000280 60 c1 42 3d ef c8 8c 3d 6e dc ff 3c 6d 4c da 3c
       0.047547698 0.068742625 0.031233039 0.02664777
000290 cc b1 0a 3c 5e 09 d5 bc e6 76 76 bc 9e bb a7 bc
       0.008465242 -0.026005443 -0.015042996 -0.020475205
0002a0 bc 5f 88 bc 6f 82 1c bc 1c c6 79 bc 8c bb ce 3c
       -0.016647212 -0.009552582 -0.015244987 0.025235914
0002b0 70 0b 9f 3d a4 03 07 3e 49 28 87 bd 47 69 5f bd
       0.077658534 0.13184983 -0.06599481 -0.05454376
0002c0 5a 94 8d bd 4d d4 a2 bd aa 3e 89 bd 25 0a 49 bd
       -0.069130614 -0.079506494 -0.06701405 -0.04908194
0002d0 67 0f 19 bd 5d 9a d1 bc 22 a5 73 bc e0 14 63 bb
       -0.037368204 -0.025586301 -0.014870914 -0.0034649894
0002e0 8d 30 ba bb 8a da 80 ba ff 13 d2 ba 88 7b 90 ba
       -0.0056820572 -0.0009830755 -0.0016027688 -0.0011023143
0002f0 d9 e7 0d 3b bc 4e b6 bb a4 2b cb bb 09 50 28 bb
       0.0021653085 -0.005563585 -0.0062002707 -0.002568247
000300 ca 97 84 b8 08 77 4b bb 46 14 6b ba 09 3f 22 bb
       -6.3225234e-05 -0.003104629 -0.00089675596 -0.002475681
000310 2f e7 88 3b 28 e4 7a 3b c9 5a 72 3b e3 6c af 3b
       0.00417795 0.0038282964 0.0036980382 0.0053535565
000320 20 6c 54 bb dc 5a 54 bb 13 01 0c bc 9b a0 e0 bd
       -0.003241308 -0.003240279 -0.008545178 -0.10968133
000330 e7 2e 03 be cc 29 b8 bd 6e ed d8 bd 85 e3 e0 bd
       -0.1281086 -0.08992347 -0.10592161 -0.10980896
000340 28 3c b0 bd 6b bc 7a bd 96 88 2a bd b7 15 9a bc
       -0.08605224 -0.061214846 -0.041634165 -0.018809183
000350 29 5a 8b bb 70 c9 bc 3b 87 46 72 3c 8a db 9c 3c
       -0.0042526913 0.005761318 0.014787323 0.019147653
000360 db e9 5c 3c 14 a1 8e 3c ef b4 9e 3b a7 61 c5 3b
       0.01348349 0.017410792 0.0048433463 0.006023604
000370 27 8a ef 3b e5 ea 16 3c ae 10 8a ba 69 fe 19 ba
       0.00731017 0.009211277 -0.0010533535 -0.0005874397
000380 4c 3b 04 3b 19 82 4d 3c f9 b3 3c 3b 71 88 65 3c
       0.0020176945 0.012543225 0.0028793795 0.014009581
000390 89 80 22 3c c9 57 ae 3b 5b 4a cf 3b bc 1a a2 3b
       0.0099183405 0.0053205234 0.0063260025 0.0049470346
0003a0 f3 92 c9 be 4f ed 4f be cc 82 a8 3d d8 d4 3f 3d
       -0.39369926 -0.2030537 0.082280725 0.046833843
0003b0 af 08 30 bd 58 03 65 3d d4 ca c0 3c 51 e6 48 bd
       -0.04297703 0.055911392 0.023534216 -0.04904777
0003c0 cd 96 fe bc 65 53 41 bd 19 42 14 be 6d c3 4c be
       -0.031077767 -0.04719867 -0.14478339 -0.19996424
0003d0 4a b5 51 be 25 97 23 be 29 1e dc bd 13 91 d5 bd
       -0.20479313 -0.15975626 -0.1074794 -0.10428061
0003e0 71 96 c8 bd 83 08 91 bd 98 06 62 bd a5 87 d4 bc
       -0.097943194 -0.070817016 -0.05518207 -0.025943587
0003f0 7c db 74 bc 78 de 2c bb 57 67 45 bc 29 36 a9 bc
       -0.014944907 -0.002637772 -0.012048564 -0.020655708

bias f4 [7]
000000 d3 1b c4 bd ad 8c 93 3c 34 b9 33 3e ab 5a 1b be
       -0.095756195 0.018011415 0.17551118 -0.15171306
000010 e7 40 71 3e 26 17 a4 be 18 b5 09 bd
       0.23559915 -0.3204891 -0.03361997
